saved_models/Houston_removal_shadow/G_AB_2990.pth (torch_old, 824488 bytes, 8 tensors)

main_network.0.weight f4 [256, 144]
0	0xbe22759a	-0.15865174
1	0xbe3408f0	-0.17581534
2	0xbc68fca1	-0.014220388
3	0xbdd46f20	-0.10372758
4	0xbcc02266	-0.023453902
5	0xbd0ff063	-0.03514136
6	0xbdc857be	-0.097823605
7	0xbda6fc50	-0.081535935
8	0xbdd28150	-0.10278571
9	0xbda3d25e	-0.07999109
10	0x3b5eceee	0.0033997851
11	0xbd67ed15	-0.056622583
12	0xbe0f82cd	-0.1401474
13	0xbdcd1fd4	-0.10015836
14	0xbe0f686b	-0.14004676
15	0xbcccd048	-0.02500166
16	0xbde0a6ed	-0.109693386
17	0xbc9f3729	-0.019435482
18	0xbe0499c5	-0.12949283
19	0xbc8eef78	-0.017448172
20	0xbdcbe460	-0.099556684
21	0xbddaf6fd	-0.106916405
22	0xbbc0aa8b	-0.0058797053
23	0x3d34ff4a	0.044188775
24	0xbd34bc27	-0.04412475
25	0xbb9f078a	-0.0048531936
26	0xbbdb0076	-0.0066834046
27	0xbd957ebc	-0.07299563
28	0x3d3b6861	0.04575384
29	0x3c34f357	0.011044345
30	0xbc9f30fd	-0.01943254
31	0x3d6b4827	0.057441857
32	0xbda540ab	-0.08068975
33	0x3e02ec34	0.12785417
34	0x3df51cd5	0.1196839
35	0x3d9d3749	0.076765604
36	0x3e005a4e	0.12534449
37	0x3e3f26f2	0.186672
38	0x3e138a0e	0.14408132
39	0x3db59836	0.088669226
40	0x3df52354	0.11969629
41	0x3dce004b	0.1005865
42	0x3d36be02	0.0446148
43	0x3d7a1ece	0.061064534
44	0x3cce5d54	0.025190987
45	0x3d36a679	0.044592354
46	0xbc802b4a	-0.015645642
47	0xbc424f33	-0.011859703
48	0xbb94916a	-0.0045339363
49	0x3d7282e0	0.059206843
50	0x3c93964d	0.018016005
51	0xbc820e59	-0.015875982
52	0xbdf1aa66	-0.11800079
53	0xbe0d0fc1	-0.13775541
54	0xbd6fb5cf	-0.058522996
55	0xbe107ecf	-0.14110874
56	0xbdc2e60b	-0.095165335
57	0xbde8575c	-0.113447875
58	0xbe00ec26	-0.12590083
59	0xbe72815b	-0.23682158
60	0xbdf38fbd	-0.1189265
61	0xbe25826e	-0.16163036
62	0xbe3f63b6	-0.1869038
63	0xbe0bccf8	-0.13652408
64	0xbe57731d	-0.21040006
65	0xbe884258	-0.26613116
66	0xbe0ab70e	-0.13546392
67	0xbe7d55e5	-0.24739797
68	0xbe8439e4	-0.25825417
69	0xbe285c80	-0.16441536
70	0xbe003243	-0.12519173
71	0xbd6c50e0	-0.057694316
72	0xbdaa1a45	-0.08305792
73	0xbcfc2224	-0.030777998
74	0x3dda0a71	0.10646523
75	0x3d86356b	0.065531574
76	0x3d945434	0.07242623
77	0x3d8961d2	0.06708111
78	0x3ca35e62	0.019942466
79	0x3dc37dd9	0.09545488
80	0xbda845e7	-0.08216458
81	0x3cc6056e	0.024172511
82	0x3c5e1e9b	0.013557102
83	0x3c3839de	0.011244265
84	0x3cc0f79b	0.023555567
85	0xbda38a3d	-0.07985351
86	0xbce89f67	-0.028396321
87	0xbd83c85f	-0.06434702
88	0xbe03f3e1	-0.12886001
89	0xbdfacf2d	-0.12246547
90	0xbcbc4b8c	-0.022985242
91	0x3cf4aa0f	0.029866247
92	0xbcfffd43	-0.031248694
93	0x3d085c6c	0.033291265
94	0xbdcf8bb6	-0.101340696
95	0x3c68db96	0.01421251
96	0xbda13ed4	-0.07873312
97	0xbd7b53b4	-0.061359122
98	0x3d654505	0.055974025
99	0xbd7b827c	-0.061403736
100	0xbdc8f38a	-0.098120764
101	0x3bd21d3b	0.006412176
102	0xbcd3fcf2	-0.02587745
103	0xbdc1c988	-0.09462267
104	0x3c022f56	0.007945856
105	0x3c9b7865	0.018978307
106	0xbcbdef57	-0.023185415
107	0x3d05a37f	0.032626625
108	0xbd88380f	-0.06651317
109	0x3d28593e	0.041100733
110	0x3d43b5eb	0.047780912
111	0x3cd4e079	0.025985943
112	0x3c8e4552	0.017367039
113	0xbdb578d8	-0.0886094
114	0x3d5851c9	0.05281237
115	0xbdda7af2	-0.10667981
116	0xbc8979e2	-0.016781751
117	0xbd31f0e5	-0.043442626
118	0x3d30fa28	0.043207318
119	0xbe03406f	-0.12817548
120	0xbe90105a	-0.28137475
121	0xbdd2f914	-0.10301414
122	0xbe3df90b	-0.18552034
123	0xbdee7191	-0.11642755
124	0xbe292d66	-0.16521224
125	0xbddc02d4	-0.10742727
126	0x3d5a7d80	0.053342342
127	0x3d8f6950	0.07002509
128	0xbd8413c5	-0.06449083
129	0x3d935a36	0.07194941
130	0xbcd41e91	-0.025893481
131	0x3e06f285	0.13178451
132	0x3d07f605	0.033193607
133	0x3de8e7f3	0.11372366
134	0x3dba992c	0.091112465
135	0x3e0d54b0	0.13801837
136	0x3dd3863e	0.10328339
137	0xbc4a6e7b	-0.012355442
138	0x3e0d3eea	0.13793531
139	0x3d8700aa	0.065919235
140	0x3daaee6c	0.083462566
141	0xbd37fc60	-0.044918418
142	0x3d234117	0.039856996
143	0x3decdbd3	0.11565366
144	0xbf08f3c0	-0.53496933
145	0xbe631488	-0.22175801
146	0xbd9d2e8c	-0.07674894
147	0xbdf5bb68	-0.119986355
148	0xbde94b50	-0.11391318
149	0xbe11c80c	-0.14236468
150	0xbb244892	-0.002506767
151	0x3cf4a2f1	0.029862853
152	0xbd6c14a9	-0.05763689
153	0x3dac6a75	0.084187426
154	0xbd8ecd06	-0.06972699
155	0xbcc32586	-0.023821604
156	0x3da117cc	0.07865867
157	0x3cfc7e53	0.030821955
158	0x3d092aed	0.033488203
159	0x3dd8a711	0.105787404
160	0x3cc9fa3c	0.024655454
161	0xbd6ccbdf	-0.057811614
162	0xbd721285	-0.059099693
163	0xbd0e6925	-0.034768242
164	0x3db5bc55	0.08873812
165	0x3d8d5cd5	0.06902472
166	0xbbd4467e	-0.00647813
167	0xbdd4e6c8	-0.103955805
168	0xbd4c7b70	-0.049922407
169	0xbd176602	-0.036962517
170	0xbbf750b4	-0.0075474624
171	0xbd984cd2	-0.07436527
172	0x3da94d72	0.08266725
173	0xbe054309	-0.13013853
174	0xbd77c792	-0.06049306
175	0xbda87acf	-0.08226549
176	0xbdb06fcd	-0.08615074
177	0xbdab05a9	-0.08350689
178	0x3d283a37	0.041071143
179	0x3dacfb15	0.084463276
180	0x3d8bf6e8	0.06834203
181	0xbdf1185b	-0.117722236
182	0xbdfea455	-0.124336876
183	0x3ae22705	0.001725406
184	0x3c1b7e2d	0.009490532
185	0x3d9cd11e	0.076570734
186	0xbc1df229	-0.009640255
187	0x3d41e223	0.0473348
188	0xbe17b6e6	-0.14815864
189	0xbc748e70	-0.014926538
190	0xbd6942fd	-0.05694865
191	0xbd858e10	-0.06521237
192	0xbbd26ab7	-0.006421413
193	0xbdb27213	-0.08713164
194	0xbbb559ce	-0.005534387
195	0xbcfacf4b	-0.030616423
196	0x3d84713d	0.06466911
197	0xbc485cf1	-0.01222919
198	0xbd8e1879	-0.069382615
199	0xbba8f0a1	-0.0051556383
200	0xbe2aaf51	-0.1666844
201	0xbe2b004f	-0.16699336
202	0xbc990034	-0.018676855
203	0xbdd14206	-0.10217671
204	0xbdd6e3fd	-0.10492704
205	0xbe38f26a	-0.18061224
206	0xbe0c9d3f	-0.1373186
207	0xbd61779e	-0.055045716
208	0xbdf8a3ce	-0.12140618
209	0xbe608b75	-0.21928199
210	0xbe3014c5	-0.17195423
211	0xbd9014dd	-0.07035229
212	0xbe56e2ff	-0.2098503
213	0xbe7051e2	-0.23468736
214	0xbd91ef91	-0.07125772
215	0xbdf62a48	-0.12019783
216	0xbdc17b78	-0.09447378
217	0xbddd900e	-0.10818492
218	0xbbcf5f79	-0.00632852
219	0xbe13d50e	-0.14436743
220	0xbe16c7e8	-0.14724696
221	0xbd921f23	-0.07134845
222	0xbccc0e40	-0.024909139
223	0x3cde208d	0.02711513
224	0xbc39c875	-0.011339297
225	0xbdb5c050	-0.08874571
226	0x3d77b55c	0.060475692
227	0xbc224853	-0.009904939
228	0xbce6882e	-0.028141107
229	0xbb823f27	-0.0039748135
230	0x3c0675ec	0.008206826
231	0x3dc40bfa	0.09572597
232	0x3d2e0ba4	0.04249157
233	0x3ce85c78	0.028364405
234	0x3d7c1758	0.0615457
235	0x3d3d2fea	0.046188273
236	0x3caca1f5	0.02107332
237	0x3d0351f0	0.032060564
238	0xbc254599	-0.010087394
239	0xbb6472cf	-0.003485847
240	0xbdf59255	-0.11990801
241	0xbe4956fd	-0.1966209
242	0xbd77b208	-0.06047252
243	0x3d226f00	0.03965664
244	0xbdbb3dd5	-0.09142653
245	0xbdbfba00	-0.093616486
246	0x3ccf5ede	0.02531379
247	0x3dd41222	0.10355021
248	0xbca013b3	-0.019540643
249	0x3da34d83	0.079737686
250	0x3cb18a14	0.021672286
251	0x3cb0b0a5	0.021568606
252	0x3d55708d	0.05210929
253	0x3dec424c	0.115360826
254	0xbddb75a4	-0.107157975
255	0x3cc3feae	0.023925152

main_network.0.bias f4 [256]
0	0x3e1f3c85	0.1555043
1	0x3e648879	0.22317685
2	0xbbd76a43	-0.0065739467
3	0x3dd13583	0.10215285
4	0xbd738069	-0.059448633
5	0x3d851889	0.0649882
6	0x3e06dcaf	0.13170122
7	0xbdf532be	-0.11972569
8	0xbe224da2	-0.15849927
9	0x3deea9ff	0.11653518
10	0xbe3632d6	-0.1779283
11	0xbd7015c7	-0.05861452
12	0x3e1c7ff7	0.1528319
13	0x3e4d6b12	0.20060375
14	0x3e3f06fd	0.1865501
15	0x3e1baec6	0.1520339
16	0xbe16828c	-0.14698237
17	0xbe2bd126	-0.16779003
18	0x3e02a88f	0.12759613
19	0x3d993d15	0.074823536
20	0x3dcc5df4	0.09978858
21	0x3df1d979	0.11809058
22	0xbded4635	-0.115856566
23	0x3c2ac9ee	0.01042412
24	0x3d931fd0	0.07183802
25	0x3df12906	0.11775403
26	0x3d71764d	0.05895071
27	0x3dfef6f6	0.12449448
28	0x3cbd6ecb	0.02312412
29	0xbdbebf7f	-0.09313869
30	0x3d95db96	0.07317273
31	0x3df9b806	0.12193303
32	0x3d9aec3a	0.07564588
33	0x3d43a60e	0.047765784
34	0xbd780b99	-0.060557935
35	0xbe424eb1	-0.18975331
36	0x3df7f03d	0.12106369
37	0x3d6ff4e7	0.058583166
38	0xbd15c084	-0.03656055
39	0xbbea1807	-0.0071439776
40	0x3e2041b8	0.1565007
41	0x3c4b8de3	0.012423965
42	0xbce1c569	-0.027559953
43	0xbc9f12d3	-0.019418156
44	0xbe2c0bc7	-0.16801368
45	0xbd28b837	-0.041191306
46	0x3dc72ec8	0.0972572
47	0x3e0853b9	0.13313188
48	0xbe79dac8	-0.24399865
49	0x3db7a110	0.08966267
50	0x3e028c5d	0.12748857
51	0xbd1f9bd8	-0.038966984
52	0x3d8739bf	0.06602811
53	0x3db99ff6	0.09063713
54	0x3e015e48	0.12633622
55	0x3d7d0308	0.06177047
56	0x3db4e37c	0.08832452
57	0x3d5462b9	0.05185196
58	0x3d73933d	0.05946659
59	0xbe08314b	-0.13300054
60	0x3dc9ce2f	0.098537795
61	0x3d74217f	0.059602257
62	0x3e8425fa	0.25810224
63	0x3d58fadb	0.05297361
64	0x3e0be1bd	0.13660331
65	0x3e1d8a79	0.15384854
66	0x3d9150e2	0.07095505
67	0x3e105cfc	0.1409797
68	0xbdda54fe	-0.10660742
69	0x3dfb60e0	0.12274337
70	0x3e39798d	0.18112774
71	0xbe25f887	-0.16208087
72	0xbe4b8c50	-0.19877744
73	0x3d8780fd	0.066163994
74	0x3c8d9b23	0.017285889
75	0xbe27f5e5	-0.16402395
76	0x3e09ea1b	0.1346821
77	0x3e86cc51	0.26327756
78	0x3e3b269b	0.18276446
79	0x3e47fb08	0.19529355
80	0xbe302f13	-0.17205457
81	0xbc0fb34f	-0.008770778
82	0x3df0ca81	0.117573746
83	0xbdea5493	-0.114419125
84	0x3d3853e5	0.045001883
85	0x3bb5ea23	0.005551593
86	0x3d097a58	0.03356394
87	0x3dd13dc6	0.102168605
88	0x3e014bd7	0.12626587
89	0xbe57b064	-0.21063381
90	0x3d3e1142	0.046403177
91	0xbdb8ea40	-0.09029055
92	0xbd370c9b	-0.044689756
93	0x3d212246	0.039339326
94	0x3dd39469	0.10331041
95	0x3da5ed21	0.081018694
96	0x3cfeaefc	0.031089298
97	0x3d5ad30e	0.053423934
98	0xbcf96800	-0.030445099
99	0xbc1929c3	-0.009348336
100	0x3cd276d0	0.02569142
101	0x3dccba9c	0.099965304
102	0x3c9c32a2	0.019067112
103	0x3d93d526	0.07218389
104	0x3d51e293	0.05124147
105	0xbe201689	-0.15633596
106	0x3d7e8f39	0.062148307
107	0x3c7f69a5	0.015589152
108	0x3dd23bb0	0.10265291
109	0x3dfa0af4	0.122091204
110	0xbe6dc103	-0.2321816
111	0x3d5fee5b	0.054670673
112	0x3da5bedc	0.08093044
113	0x3d4b9c14	0.049709395
114	0x3e37b617	0.17940556
115	0x3daf5189	0.085604735
116	0xbd8a0ff4	-0.06741324
117	0xbe04eeee	-0.1298177
118	0xbe0d7677	-0.13814722
119	0x3d548d78	0.051892728
120	0x3dcaca1e	0.09901832
121	0x3d254311	0.040347163
122	0xbe14315e	-0.14471957
123	0xbe1cdb0e	-0.15317938
124	0x3dd0b70e	0.10191165
125	0xbe6398f1	-0.22226311
126	0x3d9b9ec1	0.07598639
127	0xbe02354e	-0.12715647
128	0xbdfa3ef6	-0.1221904
129	0xbd2684ee	-0.040654115
130	0x3e1e9f0d	0.1549036
131	0x3d33b6b3	0.043875407
132	0x3df15e65	0.117855825
133	0x3e31d054	0.17364627
134	0x3d25c259	0.040468547
135	0x3e359aa9	0.1773478
136	0xbe471121	-0.19440128
137	0x3a116588	0.00055464404
138	0x3e370745	0.17873867
139	0x3d95cc2b	0.073143326
140	0x3cfd87e2	0.030948583
141	0xbe0f49ad	-0.13992949
142	0xbcfb89c1	-0.030705335
143	0x3d800043	0.0625005
144	0x3e1bcc36	0.15214619
145	0x3dead941	0.11467219
146	0x3dbb2393	0.091376446
147	0x3dd4700e	0.10372935
148	0x3dfca737	0.12336581
149	0x3e10e03e	0.14148042
150	0x3db60547	0.08887725
151	0x3dfff678	0.12498182
152	0xbdea0b52	-0.114279404
153	0x3e0105e5	0.12599905
154	0xbe0e129b	-0.13874285
155	0x3dfbc47d	0.122933365
156	0x3e101bbe	0.14073083
157	0x3e268a3f	0.16263674
158	0x3d2e87ce	0.042609982
159	0x3e27af74	0.16375524
160	0x3e1fc1e1	0.15601303
161	0x3d3f2e67	0.046675112
162	0x3e318424	0.17335564
163	0x3e1df801	0.15426637
164	0xbe2afd7b	-0.16698258
165	0x3e28caee	0.16483662
166	0xbb0c01ca	-0.002136337
167	0x3da2667d	0.07929704
168	0x3dd0ad77	0.10189336
169	0xbde00d55	-0.10940043
170	0xbe330f52	-0.17486313
171	0x3be51f12	0.0069922293
172	0x3e13dc34	0.1443947
173	0x3bf94500	0.0076071024
174	0x3daeebd3	0.08541074
175	0xbe371af0	-0.1788137
176	0x3d7774e2	0.060414203
177	0x3e062d12	0.1310313
178	0x3d1c6278	0.038179845
179	0x3cacc48c	0.021089815
180	0x3d49aed3	0.04923899
181	0x3b896575	0.004193003
182	0x3e033531	0.1281326
183	0x3d9e5ebd	0.07732914
184	0x3d0679f6	0.032831155
185	0x3d061867	0.032738116
186	0xbde19075	-0.11013881
187	0xbd43bf83	-0.04779006
188	0x3e8c7930	0.2743621
189	0x3d5d3cab	0.054012936
190	0xbe2cdd7f	-0.16881369
191	0x3c6461df	0.01393935
192	0x3e27bc79	0.1638049
193	0x3cb92c39	0.022604095
194	0x3db3a2f7	0.087713175
195	0x3dda00d1	0.10644687
196	0x3ad2401e	0.0016040837
197	0x3c9631bc	0.018334262
198	0xbd95a643	-0.073071025
199	0x3deed38d	0.11661444
200	0x3d83bc17	0.0643236
201	0xbd2da0c0	-0.04238963
202	0x3df4840c	0.119392484
203	0xbcd1ac3b	-0.025594821
204	0x3e108206	0.141121
205	0x3de086b0	0.109631896
206	0xbc8df820	-0.01733023
207	0xbda0dc4a	-0.07854517
208	0x3d3457b3	0.04402895
209	0xbe15ec4a	-0.14640918
210	0x3d9d9f0d	0.07696352
211	0x3df5b5ef	0.11997592
212	0x3d5bcc6f	0.05366176
213	0xbe37e076	-0.17956719
214	0xbe2df8bd	-0.16989417
215	0x3dd97fb6	0.10620062
216	0x3c9b1f89	0.018935936
217	0x3e1ee537	0.15517126
218	0xbde442a6	-0.11145525
219	0x3e0766be	0.13222787
220	0x3e0164bf	0.12636088
221	0x3e142297	0.1446632
222	0x3d73ab10	0.05948931
223	0x3d444917	0.047921266
224	0x3e3e19ce	0.18564531
225	0x3d02018a	0.03173975
226	0x3dfaee0b	0.12252434
227	0x3df97241	0.12179995
228	0x3cd726eb	0.026263675
229	0x3c973833	0.018459415
230	0x3c8768c4	0.016529448
231	0xbd20365b	-0.039114337
232	0x3e15b252	0.14618805
233	0x3dbccf40	0.09219217
234	0xbdc5495d	-0.096331336
235	0x3dd34b0f	0.10317051
236	0xbd8cc149	-0.06872804
237	0x3a90c163	0.0011043962
238	0x3e26319c	0.16229862
239	0x3e0927fa	0.13394156
240	0x3dd4213b	0.10357901
241	0xbd37c38d	-0.044864226
242	0xbc57127f	-0.013126968
243	0x3cfedeef	0.031112162
244	0xbd540cfe	-0.051770203
245	0xbdaa40c3	-0.083131336
246	0x3cf4e8dd	0.029896194
247	0x3e19fb7a	0.15037337
248	0x3e4075a1	0.18794872
249	0x3e1cad0b	0.15300386
250	0xbd53309a	-0.051560022
251	0xbe299db7	-0.1656407
252	0x3d11aa4b	0.035562795
253	0xbe0cfd28	-0.13768446
254	0xbe10f4fa	-0.14155951
255	0xbc88930a	-0.016671676

main_network.2.weight f4 [256, 256]
0	0xbe365b45	-0.17808254
1	0x3c5109cd	0.012758684
2	0xbd53fef3	-0.05175681
3	0xbd8f2ff1	-0.06991566
4	0x3c86a304	0.016435154
5	0xbda9c387	-0.08289247
6	0x3e854604	0.2602998
7	0x3d687ced	0.056759764
8	0x3ca12fb9	0.019676076
9	0x3e98adb5	0.29820028
10	0xbdfdd86f	-0.12394797
11	0x3bf23f60	0.007392809
12	0x3bfe5f1c	0.0077628028
13	0x3b0de63c	0.0021652123
14	0x3d8bb538	0.06821674
15	0x3e88c6af	0.26714084
16	0xbc889f36	-0.01667748
17	0xbd6ee5f2	-0.05832476
18	0x3cd990d4	0.026558317
19	0xbd88f56f	-0.06687438
20	0x3dac6e40	0.08419466
21	0xbe924516	-0.28568333
22	0xbda1e383	-0.079047225
23	0x3cfff105	0.031242857
24	0x3e1ff7c6	0.15621862
25	0x3d120556	0.03564962
26	0xbc77e6a1	-0.01513067
27	0xbca36ce4	-0.019949384
28	0xbdd70f85	-0.10501007
29	0x3d8a3fd8	0.067504585
30	0xbd0a8332	-0.033816524
31	0xbcd5fc34	-0.026121236
32	0xbcd5b84d	-0.026088858
33	0xbd2715a7	-0.040792134
34	0xbd0049f7	-0.03132054
35	0xbc837d18	-0.01605086
36	0xbdeb4463	-0.11487653
37	0x3b6d983f	0.0036254076
38	0x3df1e751	0.11811698
39	0x3d3cdfe1	0.046111945
40	0xbd229607	-0.03969386
41	0xbdd063d7	-0.10175293
42	0x3d49dc5c	0.049282417
43	0xbd806db2	-0.06270923
44	0x3d563b0f	0.052302416
45	0xbd0d0b10	-0.03443438
46	0xbc6ebfba	-0.014572078
47	0x3ccf28d6	0.025288027
48	0xbd9a8918	-0.0754568
49	0xbd3c7812	-0.046012945
50	0x3dd8ff6d	0.105955936
51	0x3dbfc9b3	0.09364643
52	0xbe4d72af	-0.2006328
53	0xbd8288af	-0.063737266
54	0xbe149772	-0.14510897
55	0xbc877831	-0.016536804
56	0xbdae92ca	-0.085240915
57	0xbcc287ac	-0.023746334
58	0xbc81720e	-0.015801456
59	0xbd65beb7	-0.056090083
60	0xbe0bd064	-0.13653713
61	0xbc1d6a63	-0.009607884
62	0x3e21298a	0.15738502
63	0xbca8226a	-0.020524222
64	0x3d6b8e2b	0.05750863
65	0x3df3d043	0.11904957
66	0x3cf18e3a	0.029486764
67	0x3e17217f	0.14758871
68	0x3d10d122	0.035355695
69	0x3d9b2a54	0.07576433
70	0x3d0ebe8b	0.034849685
71	0x3d73d2ed	0.059527326
72	0xbc31e6d7	-0.010858259
73	0xbe6122fa	-0.21985999
74	0xbe3933c5	-0.18086155
75	0x3d0efa69	0.03490678
76	0x3d29225d	0.041292537
77	0x3df62eee	0.1202067
78	0x3c3f930d	0.0116927745
79	0xbd299be1	-0.041408423
80	0x3cdb6fb3	0.02678666
81	0xbcc8a7a8	-0.024494007
82	0x3d97fb60	0.07420993
83	0xbc0315bf	-0.00800079
84	0xbd9774c7	-0.073953204
85	0x3e9db2a9	0.3080037
86	0x3d89306b	0.06698688
87	0xbcc4728b	-0.0239804
88	0xbd0f9c64	-0.035061255
89	0xbe04c0df	-0.129642
90	0xbdabb1f1	-0.08383549
91	0x3da521e2	0.08063103
92	0xbda297f5	-0.0793914
93	0x3e7f7bde	0.24949595
94	0xbe425291	-0.18976809
95	0xbc27ac4f	-0.010233953
96	0x3d9d142e	0.076698646
97	0x3d5d5f20	0.054045796
98	0x3c627a4a	0.013823101
99	0xbb1bef69	-0.0023793823
100	0xbd5e4027	-0.0542604
101	0x3d32ffac	0.04370086
102	0xbd18203b	-0.037140112
103	0xbe070f50	-0.13189435
104	0xbd213b14	-0.039362982
105	0x3d7ac687	0.061224487
106	0xbd314585	-0.04327919
107	0x3d327013	0.043563914
108	0xbccdba6a	-0.025113303
109	0xbda75243	-0.08169987
110	0x3cf2468e	0.029574659
111	0xbd27b42c	-0.04094331
112	0xbe6ddcae	-0.23228714
113	0xbd4e851c	-0.05041991
114	0xbd67abab	-0.0565602
115	0xbdf01897	-0.1172344
116	0x3ca77f09	0.020446317
117	0x3ca276cd	0.01983204
118	0x3d5901e0	0.052980304
119	0x3bb3b5d9	0.0054843244
120	0xbd2eb602	-0.042654045
121	0xbd20a64b	-0.03922109
122	0x3c95b671	0.018275471
123	0xbce26cee	-0.027639832
124	0x3c99b51c	0.018763117
125	0xbba07eb6	-0.0048979176
126	0xbc56f48d	-0.013119829
127	0xbdcc75cf	-0.09983408
128	0xbcc4b92d	-0.02401408
129	0x3bc1431c	0.0058978926
130	0x3e48d5b3	0.1961277
131	0xbe4b0e90	-0.19829774
132	0x3c4fcd41	0.012683214
133	0xbd8f30f1	-0.06991757
134	0xbd281388	-0.04103425
135	0x3dc7eca5	0.09761933
136	0xbd1ed040	-0.03877282
137	0xbda7cabc	-0.081929654
138	0x3cd92471	0.026506634
139	0xbc8c35d2	-0.017115507
140	0xbe919d79	-0.28440455
141	0x3d3bed6b	0.045880716
142	0xbdb89ca5	-0.090142526
143	0xbcfe4a6f	-0.031041352
144	0x3ba9d144	0.005182417
145	0x3da55a35	0.08073846
146	0xbdbe6495	-0.09296528
147	0x3d4bd5c9	0.04976443
148	0xbd212a87	-0.039347198
149	0x3e7ab7f2	0.24484232
150	0x3d65ed31	0.056134406
151	0xbd3703ad	-0.04468124
152	0x3dc6681c	0.09687826
153	0x3dc1e560	0.09467578
154	0xbc08575a	-0.0083216075
155	0xbc19d757	-0.00938972
156	0x3e8f5ef3	0.28002128
157	0x3cf1ebc2	0.029531363
158	0xbebcbe06	-0.36863726
159	0x39e5f9fa	0.0004386453
160	0x3d8365d0	0.064159036
161	0x3c00739c	0.007840063
162	0x3e0aa3ea	0.13539091
163	0xbd5227fe	-0.05130767
164	0x3c7123e9	0.014718034
165	0x3e2e419d	0.17017217
166	0x3d2c7c1c	0.042110547
167	0xbe314cc6	-0.17314443
168	0xbe139a74	-0.14414388
169	0x3d74a7f4	0.059730485
170	0xbd4eef65	-0.050521273
171	0xbe9881c0	-0.2978649
172	0x3e84a8c9	0.25910023
173	0xbe2e6cb3	-0.17033653
174	0x3e28603c	0.1644296
175	0xbd7d9b3a	-0.061915614
176	0x3bac5767	0.0052594426
177	0x3d205876	0.039146863
178	0xbeacafd9	-0.3372791
179	0x3d2d1ad2	0.042261906
180	0x3b2550d1	0.0025225172
181	0xbe3d8ae7	-0.18510018
182	0x3d2cfec2	0.042235143
183	0xbd197b81	-0.037471298
184	0xbea20a24	-0.31648362
185	0xbcf47967	-0.029843045
186	0x3d30154b	0.042989057
187	0x3d9344ed	0.07190881
188	0x3d08e03a	0.033416964
189	0x3cf2b03e	0.029625054
190	0x3c789184	0.015171412
191	0xbd50ee3e	-0.051008455
192	0x3e11512e	0.14191124
193	0x3c154ec8	0.009113021
194	0x3e023dbc	0.12718862
195	0x3e51a561	0.20473243
196	0x3d43fac7	0.04784658
197	0x3d342c60	0.04398763
198	0x3d9a4e09	0.07534415
199	0x3b88f4bc	0.0041795652
200	0xbdb1a84c	-0.08674678
201	0xbd5817e1	-0.052757148
202	0x3e3a64d4	0.18202525
203	0xbd99fa7f	-0.075184815
204	0xbd83af87	-0.064299636
205	0x3e67825d	0.22608323
206	0xbc917ca3	-0.017759627
207	0x3d30f221	0.043199662
208	0x3d2aa4aa	0.041660942
209	0x3d558a98	0.052134126
210	0xbcad0f80	-0.021125555
211	0xbc960d6f	-0.018316953
212	0xbec5a6d6	-0.38603848
213	0xbd33ac5f	-0.043865558
214	0x3d576aac	0.052591965
215	0xbcb76319	-0.02238612
216	0x38265557	3.9656963e-05
217	0xbd2d568b	-0.042318862
218	0x3db472d5	0.08810965
219	0x3d0c4bc1	0.034251932
220	0x3ddb0beb	0.106956325
221	0x3d572997	0.052529898
222	0xbd7cf334	-0.061755374
223	0xbd08642f	-0.033298668
224	0x3e033dcf	0.12816547
225	0xbd2bf854	-0.04198487
226	0xbe18304b	-0.14862172
227	0xbd9fdc41	-0.07805682
228	0xbe84c35f	-0.25930306
229	0xbe0e45cb	-0.13893811
230	0xbd01ce12	-0.031690665
231	0xbd00b964	-0.031426802
232	0x3c3d639c	0.011559393
233	0xbd0538b5	-0.032524783
234	0x3b948636	0.0045326008
235	0x3e983585	0.29728332
236	0xbcf501ac	-0.029908024
237	0xbdbbf313	-0.09177222
238	0x3d45b4fa	0.048268296
239	0x3e566faa	0.20941034
240	0xbe00d522	-0.12581304
241	0x3dcb14aa	0.09916051
242	0x3d0a4570	0.033757627
243	0xbc84cfd7	-0.016212387
244	0x3dcdf34b	0.1005617
245	0xbad6664b	-0.001635739
246	0xbe05113d	-0.12994857
247	0x3ca996ee	0.020701852
248	0xbc31f867	-0.010862446
249	0x3d0aebde	0.033916347
250	0x3d105274	0.035234883
251	0xbd1b0b7c	-0.03785275
252	0xbcb2abda	-0.02181046
253	0x3d0625d4	0.03275092
254	0x3d8c26cb	0.06843337
255	0xbe1fe9cf	-0.15616535

main_network.2.bias f4 [256]
0	0x3dda2481	0.10651494
1	0xbe022372	-0.12708834
2	0xbe24a08f	-0.16076873
3	0xbe534638	-0.20632255
4	0x3da7815e	0.08178972
5	0x3dec0a7a	0.11525436
6	0x3e1d69ce	0.15372393
7	0x3d00f951	0.031487767
8	0x3d7cc359	0.061709736
9	0x3d8db5a1	0.069194086
10	0x3db23a21	0.087024935
11	0x3cce1956	0.025158565
12	0x3d96a6c1	0.073560245
13	0xb9f5cdfd	-0.00046883515
14	0x3e10a183	0.14124112
15	0x3d05c7a0	0.03266108
16	0xbdb38a04	-0.08766559
17	0xbe0d8c30	-0.13823009
18	0x3d6b3a87	0.057428863
19	0xbd9fda0b	-0.0780526
20	0x3e4e45a8	0.20143759
21	0x3e0031be	0.12518975
22	0x3d36a60f	0.04459196
23	0xbdbdbb19	-0.09264202
24	0x3d2b3f6e	0.04180854
25	0xbe343a13	-0.17600279
26	0xbe6c1f3f	-0.23058794
27	0x3dd741c2	0.10510589
28	0x3c447552	0.011990862
29	0x3de59b7b	0.11211296
30	0xbe2710b0	-0.1631496
31	0xbe652b12	-0.22379711
32	0xbe5591b6	-0.20856366
33	0xbdfe3028	-0.12411529
34	0xbe598d11	-0.21245219
35	0x3d8950d0	0.06704867
36	0x3e0a2228	0.13489592
37	0xbe3dca94	-0.18534309
38	0x3da7bf10	0.08190739
39	0x3e081acd	0.13291474
40	0x3d8c107e	0.06839083
41	0x3d6c0041	0.05761743
42	0x3cd84e0b	0.026404401
43	0xbd9a258b	-0.07526692
44	0x3e1bb748	0.15206635
45	0xbcc63c5e	-0.024198707
46	0x3d97694c	0.07393131
47	0x3d57f47c	0.052723393
48	0x3cc06db0	0.023489803
49	0x3d14017e	0.036134236
50	0x3d9819d0	0.07426798
51	0x3d96ed56	0.07369487
52	0x3e04b889	0.1296102
53	0x3e3e30de	0.18573329
54	0xbe3d9434	-0.18513566
55	0x3e4a1743	0.19735436
56	0x3d8d1a9f	0.06889843
57	0x3d4eb4eb	0.050465506
58	0x3dd8b5f3	0.10581579
59	0xbe439614	-0.19100219
60	0x3e161a43	0.14658456
61	0x3d9d04e4	0.076669484
62	0x3e4b1215	0.19831116
63	0x3dd67e99	0.10473365
64	0x3e302ac6	0.17203817
65	0xbe159395	-0.1460708
66	0xbce1442f	-0.027498333
67	0x3e34a2c1	0.1764021
68	0xbe82a730	-0.2551818
69	0x3d93a56d	0.07209287
70	0x3d73f3f9	0.059558842
71	0xbcbd940b	-0.023141881
72	0x3d23def5	0.04000755
73	0x3e00e05d	0.12585588
74	0x3c23a832	0.009988831
75	0xbe78813b	-0.24268048
76	0x3e0e749b	0.13911669
77	0xbe181861	-0.1485305
78	0xbe47a0ec	-0.1949498
79	0xbe0db8fc	-0.13840097
80	0x3dadeea3	0.08492782
81	0x3d8addf1	0.06780613
82	0x3d4ae98f	0.049539145
83	0x3d4f3ac6	0.05059316
84	0xbe47b560	-0.19502783
85	0x3bfe7fee	0.0077667153
86	0x3e1e089d	0.15432973
87	0xbe39de40	-0.18151188
88	0x3dd6bdf4	0.104854494
89	0x3e455c2b	0.1927344
90	0xbd83767f	-0.06419086
91	0x3e4a3881	0.19748117
92	0xbd9e937f	-0.077429764
93	0x3df87819	0.12132282
94	0x3da16ef5	0.078824915
95	0x3dbad49e	0.09122585
96	0xbdfd8a61	-0.12379909
97	0x3df24ad7	0.11830681
98	0xbe639dea	-0.22228208
99	0x3d5bc711	0.05365664
100	0xbe137e93	-0.14403753
101	0x3db7dce0	0.089776754
102	0xbd051eff	-0.032500263
103	0x3c9c5051	0.019081267
104	0x3d694e91	0.056959692
105	0xbe4dd9f1	-0.2010267
106	0xbd6b77df	-0.057487365
107	0xbe0035bd	-0.125205
108	0x3dd80947	0.105486445
109	0x3e109fb4	0.14123422
110	0x3c9accbf	0.018896459
111	0x3e431938	0.19052589
112	0xbe181080	-0.14850044
113	0x3e45af1a	0.19305077
114	0x3df65674	0.120282084
115	0xbe474d42	-0.19463065
116	0xbe0e84ff	-0.13917921
117	0x3e23ef58	0.16009271
118	0x3c56ef87	0.013118631
119	0x3e1999af	0.15000032
120	0xbdd06995	-0.10176388
121	0x3dd99780	0.106245995
122	0x3e1c510d	0.15265293
123	0xbe3f10af	-0.18658708
124	0x3dee80ba	0.116456464
125	0x3d8d0809	0.06886298
126	0x3de532f5	0.1119136
127	0x3d039fae	0.032134704
128	0xbe03b865	-0.1286331
129	0x3db5fa4f	0.08885633
130	0x3d9ac24e	0.07556592
131	0xbdc0c6e8	-0.09412938
132	0xbe2f9ad9	-0.17148913
133	0xbe763609	-0.2404405
134	0x3e0cc5a3	0.13747267
135	0x3c814696	0.015780728
136	0x3dc3fdc5	0.09569887
137	0x3d053fd8	0.03253159
138	0x3de04a08	0.1095162
139	0x3de4bc34	0.111687094
140	0xbe8139da	-0.2523945
141	0xbe0b4935	-0.13602145
142	0xbe2ad7aa	-0.16683832
143	0x3e049f9a	0.12951508
144	0xbd841b5b	-0.0645053
145	0x3dfaccd9	0.12246103
146	0x3d997cad	0.07494483
147	0x3d2062c4	0.03915669
148	0x3db99976	0.090624735
149	0xbcc29e5b	-0.02375715
150	0x3e4c2b8f	0.19938491
151	0x3e06800a	0.1313478
152	0x3d7f2b0f	0.062296923
153	0x3d2bde2f	0.041959938
154	0x3db4ac17	0.08821886
155	0x3dde9d40	0.10869837
156	0x3e17d685	0.14827926
157	0xbd4906b2	-0.04907865
158	0x3db9e1f0	0.09076297
159	0x3e0bb51e	0.1364331
160	0x3e44cb25	0.19218118
161	0x3e093a58	0.13401163
162	0xbe4d64e3	-0.20058016
163	0xbd8be9a6	-0.06831674
164	0x3e031b75	0.12803443
165	0x3c9e154b	0.019297263
166	0x3db55673	0.088543795
167	0xbd1975b1	-0.037465755
168	0x3dcbf5d3	0.099589966
169	0xbe34cd24	-0.1765638
170	0x3c95beca	0.018279452
171	0x3d1ede13	0.038786005
172	0xbe151e6a	-0.14562383
173	0x3e1fbe4c	0.15599936
174	0x3cd63d01	0.026152136
175	0x3d4dddbc	0.05026029
176	0xbe41a8e4	-0.18912083
177	0x3d171809	0.036888156
178	0xbdf70a5a	-0.12062521
179	0x3b1e1fd1	0.002412785
180	0x3e28779e	0.1645188
181	0x3d9ac505	0.0755711
182	0x3e3685ee	0.17824528
183	0x3d82a667	0.06379395
184	0x3df979f0	0.12181461
185	0x3e0f5ad6	0.13999495
186	0xbe4244e5	-0.18971594
187	0x3def88d1	0.116960175
188	0x3da78739	0.081800885
189	0xbd79bb1e	-0.060969464
190	0x3d049aa4	0.03237404
191	0x3e394afa	0.18095008
192	0xbcc44845	-0.023960242
193	0x3d7c9b32	0.061671443
194	0x3c92f319	0.017938184
195	0x3da9f730	0.082991004
196	0xbe5b8449	-0.21437182
197	0xbb89c03e	-0.0042038253
198	0x3dad4d71	0.084620364
199	0x3e16da08	0.1473161
200	0x3c96ab09	0.018392103
201	0x3d23e85c	0.040016517
202	0x3d8d5cc4	0.06902459
203	0x3d1a3d1c	0.037655935
204	0x3e072421	0.13197376
205	0x3d6aafe4	0.05729665
206	0xbd0c4f47	-0.034255292
207	0xbe4025c0	-0.187644
208	0x3e2a12bb	0.16608708
209	0xbd9a00c1	-0.07519675
210	0x3dd175f2	0.102275744
211	0x3d032b44	0.032023683
212	0x3dff2354	0.1245791
213	0xbd42c720	-0.04755318
214	0x3c9d5075	0.019203404
215	0x3df8fa06	0.12157063
216	0x3e1a68ff	0.15079115
217	0x3d9a60bb	0.07537981
218	0x3d6e71a9	0.058213864
219	0x3dc279ba	0.09495874
220	0x3c8d63a9	0.017259436
221	0xbe404a86	-0.18778428
222	0x3e2e663c	0.17031187
223	0x3df76753	0.120802544
224	0xbe5e54f5	-0.21712096
225	0xbd72a259	-0.059236858
226	0xbe796dc6	-0.24358281
227	0xbe4ce5c4	-0.20009524
228	0xbdddc59b	-0.10828706
229	0x3debda7d	0.11516283
230	0x3c7ff4d6	0.015622338
231	0x3ce8ccfb	0.028418055
232	0x3baaae49	0.0052087647
233	0xbdf50e54	-0.119656235
234	0x3d8d0cdc	0.06887218
235	0x3d8578d5	0.065171875
236	0x3cfd09b9	0.030888425
237	0xbd722ca7	-0.059124615
238	0x3dff8331	0.12476195
239	0x3dccedf6	0.10006325
240	0x3dfc7bb3	0.12328281
241	0x3d4ff70c	0.05077271
242	0x3d09c27c	0.03363274
243	0xbe109467	-0.14119111
244	0x3dc8eef2	0.098112
245	0x3e0f232c	0.13978261
246	0x3d173e2e	0.036924534
247	0x3ae9b3fa	0.0017830126
248	0xbd1ec41d	-0.038761247
249	0xbdcf5a02	-0.101245895
250	0xbe1ecd88	-0.15508091
251	0xbd949749	-0.07255418
252	0xbe29b072	-0.16571215
253	0x3db42c39	0.08797497
254	0x3d48735b	0.048938137
255	0x3d80d189	0.06289966

main_network.4.weight f4 [256, 256]
0	0x3ce4841a	0.027895022
1	0x3d3d2593	0.04617841
2	0x3d97b4dd	0.07407544
3	0x3db7619d	0.08954165
4	0xbe05c236	-0.13062367
5	0x3d7851f1	0.06062502
6	0xbaea93ef	-0.0017896871
7	0x3c461711	0.01209046
8	0xbca012d9	-0.019540237
9	0x3dc0d77d	0.09416101
10	0x3db05902	0.08610727
11	0x3d133f5f	0.035949107
12	0xbcafb87f	-0.02145028
13	0x3c58cc63	0.013232323
14	0x3cba9a54	0.022778668
15	0xbd442ceb	-0.0478944
16	0x3d6931e6	0.056932352
17	0xbaf67f8f	-0.0018806326
18	0xbd69782e	-0.056999378
19	0x3e47acd3	0.19499521
20	0xbd1541b4	-0.036439613
21	0xbde044ef	-0.10950648
22	0x3c32baca	0.010908792
23	0xbd2b9801	-0.04189301
24	0x3d3e4645	0.046453733
25	0x3d5c24a1	0.05374587
26	0x3da3d2b4	0.07999173
27	0xbced6a2f	-0.028981296
28	0x3dccc8de	0.0999925
29	0x3d4b6d45	0.049664754
30	0xbd2eadfc	-0.042646393
31	0xbd15866b	-0.036505144
32	0x3d3d1411	0.046161715
33	0xbd74e047	-0.0597842
34	0x3dc34b9c	0.09535906
35	0xbd7d6af4	-0.061869577
36	0x3d36923e	0.04457306
37	0xbd1e452a	-0.03864018
38	0x3daaacc8	0.08333737
39	0x3c8cb521	0.017176213
40	0x3d2435cd	0.04009037
41	0xbcdef5d3	-0.027216827
42	0x3d9ac703	0.0755749
43	0xbb99e888	-0.0046969093
44	0xbc9888b2	-0.018619869
45	0xbc35e4b8	-0.011101894
46	0x3d9236f9	0.071393915
47	0x3cb52f07	0.022117151
48	0xba232ea3	-0.0006224906
49	0x3c17442c	0.009232562
50	0xb93850a7	-0.00017577653
51	0xbd24339d	-0.040088285
52	0xbd1664f6	-0.036717378
53	0xba42881f	-0.00074207963
54	0x3be3f68a	0.00695688
55	0xbd89a37c	-0.06720635
56	0x3c70aa59	0.014689052
57	0x3dd56175	0.10418979
58	0xbd60d5cf	-0.054891404
59	0x3d9e4bad	0.07729278
60	0x3c6d044f	0.014466359
61	0x3d5dd824	0.054161206
62	0xbc8a0060	-0.016845882
63	0x3d293bb9	0.04131672
64	0xbd57d859	-0.05269656
65	0xbc3a3fb2	-0.011367725
66	0xbd792062	-0.0608219
67	0xbd5bfb86	-0.05370667
68	0x3e38d513	0.18050031
69	0xbc875296	-0.016518872
70	0xbd2b420e	-0.04181104
71	0x3dd98791	0.1062156
72	0xbb8a47ab	-0.0042199693
73	0xbcac8895	-0.021061221
74	0xbd504c91	-0.05085427
75	0x3db88758	0.0901019
76	0xbd6a1cc5	-0.057156343
77	0x3d2e6e9a	0.042585947
78	0xbd2c07e3	-0.04199971
79	0x3db4d073	0.08828821
80	0x3c983996	0.018582147
81	0x3cb71181	0.022347214
82	0xbd23181d	-0.039817918
83	0x3d55b265	0.052172083
84	0xbbb63510	-0.0055605248
85	0x3d10283a	0.035194613
86	0xbd6a5308	-0.05720809
87	0xbc202896	-0.009775301
88	0xbd651557	-0.055928554
89	0xbd0e8ac8	-0.03480032
90	0xbd3568a8	-0.04428926
91	0xbd86ee28	-0.065883934
92	0x3d6c6cc9	0.057720933
93	0xbd70336d	-0.058642793
94	0x3d7d22ee	0.06180089
95	0x3c449935	0.011999418
96	0xbcc12775	-0.023578385
97	0x3d226c78	0.039654225
98	0x3cf91eb1	0.030410143
99	0xbccb450c	-0.024813198
100	0x3cd45fe8	0.025924638
101	0xbc6177aa	-0.01376144
102	0xbda78792	-0.08180155
103	0xb8f8fa54	-0.00011872189
104	0xbe0cf9a8	-0.13767111
105	0x3ddac87a	0.10682769
106	0x3cda34ec	0.026636563
107	0xbc81d34e	-0.015847828
108	0xbda2e7cc	-0.07954368
109	0x3c9f25ab	0.019427141
110	0x3d700ce8	0.05860606
111	0x3c8d4bb2	0.017248008
112	0x3d2c8e22	0.042127736
113	0xbd1bf008	-0.03807071
114	0xbd2aaafa	-0.041666962
115	0x3c66afc1	0.014079989
116	0x3d10c380	0.035342693
117	0xbdacbe35	-0.084347166
118	0xbce62bc2	-0.028097037
119	0x3bbd58a7	0.0057783904
120	0xbc9c3acc	-0.019071005
121	0xbd1cc1e1	-0.038270835
122	0xbc5b4703	-0.01338363
123	0x3c34eb87	0.011042482
124	0xbd2527c9	-0.040321145
125	0x3d828072	0.06372155
126	0x3c331896	0.010931155
127	0x3d860967	0.06544762
128	0xbceef814	-0.029171027
129	0x3ca81cdf	0.02052158
130	0x3d0b81c0	0.034059286
131	0x3c2bf255	0.010494788
132	0xbd11685e	-0.035499923
133	0xbc772b92	-0.015086072
134	0xbd4ff63d	-0.05077194
135	0xba826bf1	-0.0009950382
136	0xbd8ffae0	-0.070302725
137	0xbd3eff11	-0.04662997
138	0xbd8c294e	-0.06843816
139	0xbdd421c9	-0.103580065
140	0x3e199894	0.1499961
141	0x3cfff8cb	0.031246563
142	0x3dd1866f	0.10230719
143	0xbbdca7d2	-0.006733873
144	0x3d89a790	0.06721413
145	0x3d2f1778	0.04274699
146	0x3ca2c358	0.019868538
147	0xbca933ec	-0.020654641
148	0xbcd115e9	-0.025523143
149	0xbdce9d50	-0.10088599
150	0xbd819c66	-0.06328659
151	0xbd58ce4b	-0.05293111
152	0xbd38dc3b	-0.045131903
153	0xbd4381cb	-0.047731202
154	0x3c494262	0.012283893
155	0xbd5ec90c	-0.054390952
156	0xbd89a06b	-0.067200504
157	0xbcfa431b	-0.030549577
158	0xbd810aed	-0.06300912
159	0x3d1860a0	0.037201524
160	0xbda229df	-0.079181425
161	0xbda69f49	-0.0813585
162	0xbb8d5073	-0.004312569
163	0x3d9de5d5	0.077098526
164	0xbc863856	-0.016384285
165	0xbc5df38b	-0.013546835
166	0x3c8fcad6	0.017552774
167	0xbd691c22	-0.056911595
168	0x3e266edf	0.16253231
169	0x3cae5e20	0.021285117
170	0xbae8d4af	-0.001776358
171	0xbd3503b4	-0.044192985
172	0x3d703b56	0.058650337
173	0xbd8b03ef	-0.0678786
174	0xbd49962e	-0.049215488
175	0x3ce77a64	0.028256603
176	0x3d853127	0.06503516
177	0xbd7811c1	-0.060563806
178	0x3bb1e91c	0.0054294
179	0x3d4b39e9	0.049615774
180	0xbc55fa0f	-0.013060107
181	0xbd88c9db	-0.06679126
182	0x3cc6656d	0.024218285
183	0x3ddc1318	0.10745829
184	0xbc391236	-0.011295846
185	0xbd684d4c	-0.05671434
186	0x3db3bee0	0.08776641
187	0xbc02e567	-0.007989264
188	0xbb611a9b	-0.0034348133
189	0xbd2bd7ef	-0.041953977
190	0x3d758ef2	0.059950776
191	0xbc015006	-0.007892614
192	0xbbde7f2d	-0.006790063
193	0xbb8d1e04	-0.0043065567
194	0x3ca7d734	0.020488359
195	0xbc088c0c	-0.008334171
196	0x3d150576	0.03638216
197	0xbdac9e94	-0.08428684
198	0xbd327b39	-0.043574546
199	0xbcdd6068	-0.02702351
200	0xbd60356f	-0.05473846
201	0xbbdc39de	-0.0067207655
202	0xbd90eb34	-0.070761114
203	0xbb12ecab	-0.0022418897
204	0xbd95fa60	-0.07323146
205	0xbd608e24	-0.054823056
206	0x3e0199db	0.12656347
207	0x3da4f6fc	0.08054921
208	0xbd2523e8	-0.040317446
209	0x3d7d39c1	0.061822657
210	0xbd4f7933	-0.050652694
211	0x3c81804c	0.015808247
212	0xbd8594d7	-0.065225296
213	0xbd0d32b3	-0.03447218
214	0x3dde9be4	0.108695775
215	0x3d9db84e	0.07701169
216	0xbd7fcc9d	-0.062450994
217	0xbd102124	-0.035187855
218	0x3c9c1081	0.019050838
219	0xbcb7729c	-0.022393517
220	0x3c94ea29	0.018178063
221	0x3bcefbf8	0.006316658
222	0xbc976490	-0.01848057
223	0x3c987eb7	0.01861511
224	0x3be89819	0.0070982096
225	0x3dd2d905	0.102952994
226	0x3d4aa599	0.049474332
227	0x3da971a2	0.08273627
228	0x3c9a772f	0.01885566
229	0xbdb4aaea	-0.08821662
230	0x3d86096c	0.06544766
231	0x3de78cbd	0.113061406
232	0x3d6d7d00	0.057980537
233	0x3c625cb3	0.0138160465
234	0xbc9c3169	-0.01906653
235	0xbc8ef758	-0.017451927
236	0xbbc0b903	-0.00588143
237	0xbd39e84c	-0.04538755
238	0xbbd14c2d	-0.0063872547
239	0x3c7fcfac	0.015613478
240	0x3cc2d4b3	0.023783064
241	0xbd4dde5c	-0.050260887
242	0xbda6decf	-0.08147966
243	0xbdb28db1	-0.08718432
244	0x3dd3466b	0.103161655
245	0x3b29fab8	0.0025936794
246	0xbcfa42bb	-0.030549398
247	0xbda3840c	-0.0798417
248	0x3d06959f	0.032857534
249	0xbc5cfaa2	-0.01348749
250	0xbd2c4847	-0.042061117
251	0x3d1c7bf4	0.03820415
252	0x3dbc83e2	0.09204842
253	0xbd246bdf	-0.040141936
254	0x3d2c72a3	0.042101514
255	0x3d5ccff4	0.053909257

main_network.4.bias f4 [256]
0	0xbe3e36c4	-0.18575579
1	0xbc0446cf	-0.008073523
2	0x3d7ff473	0.062488984
3	0xbe70c8ed	-0.23514147
4	0xbe037999	-0.12839355
5	0x3da28e7f	0.07937335
6	0xbe06019b	-0.1308655
7	0x3e312568	0.17299426
8	0x3d7018bb	0.058617335
9	0x3e160703	0.14651112
10	0xbe66a51f	-0.22523926
11	0xbdaf38f6	-0.08555786
12	0xbe538648	-0.20656693
13	0x3da0e88c	0.07856855
14	0x3d4b8aff	0.049693104
15	0x3de9d78d	0.11418066
16	0xbe540c28	-0.20707762
17	0x3d75578c	0.059897944
18	0xbda9267c	-0.082592934
19	0xbe45ff3f	-0.1933565
20	0x3dd124d1	0.102121
21	0xbe3f922d	-0.18708105
22	0xbe1f397c	-0.15549272
23	0x3e0800c8	0.13281548
24	0x3df51bba	0.11968179
25	0xbe41372c	-0.18868703
26	0x3e395e62	0.1810241
27	0xbe46bdfb	-0.1940841
28	0xbe5a3074	-0.21307546
29	0x3deeb279	0.11655135
30	0x3db1ab46	0.08675246
31	0xbe614093	-0.2199729
32	0xbe3967b5	-0.18105967
33	0xbe397c9c	-0.18113941
34	0xbe83bfae	-0.25732177
35	0xbdfc059d	-0.12305758
36	0x3cf90878	0.030399546
37	0x3db6ad65	0.08919791
38	0xbe49b145	-0.19696529
39	0xbe55bbae	-0.20872375
40	0x3e012877	0.12613092
41	0xbe68f785	-0.22750671
42	0x3d8dc3f7	0.06922143
43	0xbd2f6a1f	-0.042825814
44	0xbe160dc0	-0.14653683
45	0x3bcd992d	0.0062743635
46	0x3dece329	0.11566765
47	0xbe261902	-0.16220477
48	0x3e3f0766	0.18655166
49	0xbe150fc7	-0.145568
50	0xbdad2b14	-0.08455482
51	0xbe55d822	-0.2088323
52	0xbe24bbee	-0.16087314
53	0xbd2e231c	-0.04251395
54	0xbde1ecd1	-0.11031497
55	0x3d2e256f	0.04251617
56	0x3e1efa1b	0.15525095
57	0x3dc0a39c	0.09406206
58	0xbde2f6a2	-0.11082198
59	0x3e4f482c	0.20242375
60	0xbe137eee	-0.14403889
61	0x3d831488	0.064004004
62	0x3d515afe	0.051112168
63	0x3e0293a2	0.1275163
64	0x3e078006	0.13232431
65	0x3e3fc780	0.18728447
66	0xbe41c7f8	-0.18923938
67	0x3e298993	0.16556387
68	0x3e346194	0.17615348
69	0xbe44fd2f	-0.19237207
70	0xbdb7e931	-0.089800246
71	0x3e3a72c7	0.18207847
72	0xbe1b72fe	-0.15180585
73	0xbe704930	-0.23465419
74	0x3ae84689	0.0017721216
75	0xbe64e275	-0.22352012
76	0xbe2ecd31	-0.17070462
77	0x3e362a17	0.17789494
78	0x3da19a83	0.07890799
79	0xbe6ab3e9	-0.22920193
80	0x3dd5207c	0.104065865
81	0xbe71a606	-0.23598489
82	0xbde15537	-0.110025816
83	0xbe67107a	-0.22564879
84	0x3e637e35	0.22216113
85	0xbe2a13e5	-0.16609152
86	0x3e3bba17	0.18332706
87	0xbe05cfd3	-0.1306756
88	0xbdbede33	-0.09319725
89	0x3c59f6f6	0.013303509
90	0x3def73c7	0.11692005
91	0x3da8f9fe	0.08250807
92	0xbe29922a	-0.16559663
93	0xbe1f5f39	-0.15563668
94	0xbe2945a7	-0.16530477
95	0xbcebe8fa	-0.028797615
96	0xbe85d829	-0.2614148
97	0x3d04750e	0.032338195
98	0x3e2ba88a	0.16763511
99	0x3e1f88da	0.15579548
100	0xbe09706c	-0.13421792
101	0x3d734814	0.05939491
102	0xbe6401fb	-0.2226638
103	0xbe6bbd0e	-0.23021337
104	0x3c679145	0.014133756
105	0x3e6a15d4	0.2285989
106	0xbd91d812	-0.0712129
107	0xbe3f7c82	-0.1869984
108	0xbe7b4939	-0.24539651
109	0x3de51458	0.11185521
110	0x3e0f6ad0	0.1400559
111	0x3d45d851	0.048302
112	0xbe4c04ea	-0.1992375
113	0xbe39ec1c	-0.18156475
114	0x3e1c9fe7	0.15295373
115	0x3de970fc	0.11398503
116	0x3e60093b	0.21878521
117	0x3e3c54d0	0.18391728
118	0x3e2c477e	0.16824147
119	0x3d88b3ff	0.066749565
120	0x3e073943	0.13205437
121	0xbe40f014	-0.18841583
122	0xbdf47b2e	-0.11937557
123	0x3d5075d8	0.050893635
124	0xbe13822c	-0.14405125
125	0x3c24bc98	0.01005473
126	0xbd4d48a5	-0.050118107
127	0xbe743b8c	-0.2385084
128	0x3e2cc255	0.16871007
129	0xbdb32ec9	-0.08749158
130	0x3e027b76	0.12742409
131	0x3e5dca6f	0.21659254
132	0x3e02b038	0.12762535
133	0xbe475d22	-0.19469121
134	0xbe579ae4	-0.2105518
135	0xbe44493a	-0.19168559
136	0xbe57cbed	-0.21073885
137	0xbe418d95	-0.18901666
138	0x3d2d3367	0.04228535
139	0x3e47a27e	0.1949558
140	0x3cc15321	0.02359921
141	0xbe71600d	-0.23571797
142	0x3e13494a	0.14383426
143	0xbdb82db9	-0.08993096
144	0xbd0ae125	-0.03390612
145	0x3e46bc05	0.19407661
146	0x3e180bba	0.14848223
147	0x3e2f7936	0.17136082
148	0xbe70d5d6	-0.23519072
149	0x3dfd3163	0.123629354
150	0x3e4abc7f	0.19798468
151	0x3e133d6e	0.14378902
152	0x3e1e0c53	0.15434389
153	0x3d823f20	0.063596964
154	0xbe2456ad	-0.16048689
155	0xbe77fce1	-0.2421756
156	0xbdf4f519	-0.11960811
157	0x3e48618a	0.19568458
158	0x3dec97ee	0.11552416
159	0x3e1871c3	0.14887147
160	0xbdf70a92	-0.12062563
161	0xbe13717d	-0.14398761
162	0xbe6c91d4	-0.23102504
163	0xbe6ae606	-0.2293931
164	0x3d45549e	0.0481764
165	0xbe2b08ee	-0.16702625
166	0x3d974cb8	0.0738768
167	0x3e1ccddb	0.15312903
168	0x3ddf55f2	0.10905065
169	0x3dccf16d	0.10006986
170	0xbdc74ca0	-0.09731412
171	0xbe4c619d	-0.19959112
172	0xbe62d0ab	-0.22149913
173	0xbe2452e1	-0.16047241
174	0xbe669e69	-0.22521366
175	0xbe488226	-0.19580898
176	0x3e1465f0	0.14492011
177	0x3e5a10c8	0.21295464
178	0x3cb9811d	0.022644574
179	0xbe314da2	-0.17314771
180	0xbe5af27f	-0.21381567
181	0x3d9c635f	0.07636141
182	0xbd2d3e96	-0.042296015
183	0xbe805262	-0.25062853
184	0x3dfecd69	0.12441523
185	0x3e248a55	0.16068394
186	0x3e190b80	0.14945793
187	0xbe1de84d	-0.15420647
188	0x3e328682	0.17434123
189	0x3e3e3c4a	0.18577686
190	0xbe52b4a2	-0.20576718
191	0x3d9c2f17	0.07626169
192	0x3e4a2a3b	0.19742672
193	0x3d51d5f7	0.051229443
194	0x3e711f05	0.2354699
195	0xbe30b7da	-0.17257634
196	0xbda8c6ca	-0.08241041
197	0xbe26de99	-0.16295852
198	0x3dabeb8a	0.08394535
199	0x3ddfa433	0.109199904
200	0x3d0d6e05	0.03452875
201	0xbdb052dd	-0.08609555
202	0xbe52e881	-0.20596506
203	0xbb19e177	-0.0023480335
204	0xbe3c9193	-0.18414907
205	0x3d3d0093	0.046143126
206	0xbdc28b9c	-0.094992846
207	0xbe47b2fe	-0.19501874
208	0xbe237b27	-0.15964948
209	0x3e4df2a1	0.20112087
210	0x3e1144d4	0.14186412
211	0xbd770fda	-0.06031785
212	0x3e02806f	0.12744306
213	0xbe058ad4	-0.1304124
214	0xbe5e0c57	-0.21684395
215	0xbe3065df	-0.1722636
216	0x3ddde833	0.10835304
217	0xbda13ac5	-0.078725375
218	0xbe43ce14	-0.19121581
219	0xbdba41ed	-0.090946056
220	0x3e483884	0.19552809
221	0x3c060917	0.008180878
222	0x3e5a06fe	0.2129173
223	0xbe2213fd	-0.15827937
224	0xbe5c2e66	-0.21502075
225	0x3cbac73f	0.022800086
226	0xbe5fa98e	-0.21842024
227	0x3e184b0f	0.14872383
228	0xbe36b2c5	-0.17841633
229	0x3e482195	0.1954406
230	0x3e3d2f10	0.18474984
231	0xbe341397	-0.17585598
232	0x3e2d2eb8	0.16912353
233	0xbe008aed	-0.12552996
234	0xbb99ad82	-0.004689873
235	0xbe6af04f	-0.22943233
236	0x3d8e45b1	0.06946886
237	0x3d95c1a6	0.07312326
238	0x3e26120c	0.16217822
239	0x3c5ddcbf	0.0135413995
240	0x3adb890b	0.0016749216
241	0xbc878cd9	-0.016546654
242	0xbe5afdfb	-0.21385948
243	0x3cacc08a	0.021087904
244	0xbd4d287c	-0.050087437
245	0x3df217ae	0.11820923
246	0xbdd9c47d	-0.1063318
247	0x3e0555be	0.1302099
248	0x3e2e7b6a	0.17039266
249	0xbdec5c44	-0.11541036
250	0x3d9b24ef	0.07575404
251	0xbdcf6501	-0.10126687
252	0xbdf9ccff	-0.12197303
253	0x3e34a63b	0.17641537
254	0x3e53b536	0.20674595
255	0xbe79b4d0	-0.2438538

main_network.6.weight f4 [144, 256]
0	0x3cbc95fc	0.023020737
1	0xbd928fca	-0.07156332
2	0x3e2fdb41	0.17173482
3	0x3e5983bf	0.21241663
4	0x3d96a4a5	0.07355622
5	0xbecefd87	-0.404278
6	0x3db69822	0.08915736
7	0xbe2a2eb4	-0.16619378
8	0xbceec046	-0.029144417
9	0xbe878265	-0.2646667
10	0x3d714f75	0.058913667
11	0xbd70899a	-0.058724977
12	0x3e5c58c2	0.21518233
13	0xbf4ad406	-0.7922977
14	0xbe3fe563	-0.18739848
15	0x3ec22fba	0.37927037
16	0x3e4b7d55	0.19872029
17	0x3f11fb9c	0.5702455
18	0x3d081ae6	0.033228777
19	0x3d4059bd	0.04696058
20	0xbc918e1f	-0.017767964
21	0x3ccc8790	0.024966985
22	0xbf06d119	-0.5266281
23	0xbdd0f0fb	-0.102022134
24	0xbd8b8542	-0.06812526
25	0x3e0301d0	0.1279366
26	0x3d8b1fdc	0.06793186
27	0x3e0244b9	0.12721528
28	0x3ecf06e8	0.40434957
29	0xbe53375b	-0.20626585
30	0xbf1d6a33	-0.6149017
31	0x3e02b68e	0.12764952
32	0x3d67224b	0.05642919
33	0x3e31e4a2	0.17372373
34	0x3e04671f	0.12929963
35	0xbe9d0650	-0.3066888
36	0x3cfd6973	0.030934071
37	0xbe20b110	-0.15692544
38	0xbb37ced9	-0.0028046875
39	0x3d87a0cd	0.06622467
40	0x3d06c757	0.03290495
41	0x3e012239	0.12610711
42	0xbea6a428	-0.32547116
43	0xbef5d900	-0.4801712
44	0x3e16176d	0.14657374
45	0xbb857afe	-0.0040734997
46	0x3f4ebb49	0.80754524
47	0x3e30f06f	0.17279218
48	0xbe885b34	-0.26632082
49	0x3d1bf5e5	0.0380763
50	0x3d326e31	0.043562118
51	0x3e1d416e	0.1535699
52	0x3da03837	0.07823222
53	0xbf18fee1	-0.59763914
54	0x3e3a005e	0.18164203
55	0x3ddd58b0	0.108079314
56	0xbc477cbf	-0.012175738
57	0x3cd07832	0.025447939
58	0x3e2a4d95	0.16631158
59	0xbd834ef3	-0.06411543
60	0x3e988e1a	0.29795915
61	0xbc0f4dd7	-0.008746586
62	0xbf0e0715	-0.55479556
63	0xbe165249	-0.14679827
64	0x3f1e634b	0.6187026
65	0x3c763df5	0.01502942
66	0x3df609f2	0.12013616
67	0x3ae13829	0.0017182875
68	0xbd9a891b	-0.07545682
69	0x3d51dc27	0.051235344
70	0x3d3ad875	0.045616586
71	0xbde3701e	-0.11105369
72	0x3d8f1571	0.069865115
73	0x3e0b7ae4	0.13621098
74	0xbe0720a7	-0.1319605
75	0x3e12b2c7	0.1432601
76	0x3e80bff2	0.25146443
77	0x3c490673	0.012269604
78	0xbeba8365	-0.3642837
79	0x3e0776a3	0.1322885
80	0x3dcca61d	0.09992621
81	0x3deb7ed4	0.114988
82	0x3e4ec616	0.20192751
83	0x3c8c62d0	0.017136961
84	0xbe12d131	-0.14337613
85	0x3c0bf61b	0.008542563
86	0xbd38652e	-0.045018367
87	0x3e383ddd	0.17992349
88	0x3f01e3a7	0.50737995
89	0xbe915ffc	-0.28393543
90	0x3e5be834	0.21475297
91	0x3e3bc00a	0.18334976
92	0x3e407db4	0.18797952
93	0x3db49128	0.08816749
94	0xbf00ecf6	-0.50361574
95	0x3eeb9f1a	0.46019822
96	0x3e513d77	0.20433603
97	0xbe161aa6	-0.14658603
98	0x3a083f98	0.00051974645
99	0xbe574a59	-0.21024455
100	0xbd361e00	-0.044462204
101	0x3d94184f	0.07231199
102	0x3de753e0	0.11295295
103	0x3e3696e6	0.17831
104	0xbe7ba90c	-0.24576205
105	0xbd6d6346	-0.057956003
106	0xbd69ddde	-0.057096355
107	0x3d8097da	0.062789634
108	0x3d835113	0.06411948
109	0xbeb0b196	-0.34510487
110	0x3dbd593e	0.09245537
111	0xbde49c56	-0.11162631
112	0xbc88c94a	-0.016697545
113	0x3de18b1e	0.110128626
114	0xbd033092	-0.032028742
115	0x3d4f88d3	0.050667595
116	0xbdb27591	-0.0871383
117	0xbd6ef6a7	-0.058340695
118	0xbdeda489	-0.11603648
119	0xbe9eea6c	-0.31038225
120	0xbe448744	-0.19192225
121	0x3e2115aa	0.1573092
122	0xbdb826bc	-0.08991763
123	0xbe7a755f	-0.24458836
124	0x3e63cfb0	0.22247195
125	0x3efb5e84	0.49095547
126	0x3d441eab	0.04788081
127	0x3de9d910	0.114183545
128	0x3d6619b9	0.056176875
129	0xbf10e4e7	-0.5659928
130	0xbe3cd2b8	-0.18439758
131	0xbd9a4779	-0.075331636
132	0xbded6518	-0.11591548
133	0x3e23ea06	0.16007242
134	0x3e072df7	0.13201128
135	0x3dd6f2f8	0.10495561
136	0x3ca8b133	0.020592308
137	0x3dadb0cb	0.08480986
138	0x3d436b00	0.047709465
139	0xbe656b82	-0.22404292
140	0xbd8afa1d	-0.067859866
141	0x3e01fa2c	0.12693089
142	0x3e182735	0.14858706
143	0xbd5be4d0	-0.05368501
144	0x3e598be8	0.21244776
145	0xbdf5723f	-0.11984681
146	0xbdc7068b	-0.09718045
147	0xbdab59cf	-0.08366739
148	0x3db1d81f	0.086838
149	0x3d733eef	0.05938619
150	0xbe7afcd8	-0.24510515
151	0x3e7766f8	0.24160373
152	0x3c43c8eb	0.011949758
153	0xbe8e6fd1	-0.27819684
154	0x3e680be4	0.22660786
155	0x3dfc96c0	0.12333441
156	0x3c8e6dd9	0.017386364
157	0xbdfe85fd	-0.124279
158	0xbe430a7c	-0.19046968
159	0xbdd97c28	-0.10619384
160	0x3e05a374	0.13050634
161	0x3d79978d	0.060935546
162	0x3e48ba86	0.19602403
163	0xbd513eab	-0.051085155
164	0xbe808931	-0.2510467
165	0x3e2f3249	0.17109026
166	0x3e104f4c	0.1409275
167	0xbd884b67	-0.06655007
168	0xbe0fb44e	-0.14033625
169	0x3eb53619	0.35392836
170	0x3ea6f3e3	0.32607946
171	0xbcd9f263	-0.026604837
172	0x3db4fa59	0.088368125
173	0xbe68ca08	-0.22733319
174	0x3dc300ab	0.09521612
175	0x3da6f36b	0.08151897
176	0x3b7d8319	0.0038682877
177	0xbdab55cd	-0.083659746
178	0xbdb4a55c	-0.08820602
179	0x3dfd273a	0.123609975
180	0x3d8d245b	0.068917
181	0xbe7d7ab6	-0.24753842
182	0x3e075358	0.13215387
183	0x3e2cd6c0	0.16878796
184	0xbdb61065	-0.08889846
185	0xbedad911	-0.42743734
186	0xbc592483	-0.013253334
187	0x3dd82e75	0.10555736
188	0xbe2f5545	-0.17122371
189	0xbd7e8fba	-0.062148787
190	0x3e061a23	0.13095908
191	0xbfaf9a47	-1.3718957
192	0xbe1a3229	-0.15058197
193	0x3f2ce35f	0.6753444
194	0xbd9a62ca	-0.07538374
195	0x3d954727	0.07288962
196	0x3cef53c2	0.029214744
197	0x3e03b2dc	0.12861198
198	0x3f2c2497	0.6724333
199	0xbe204de7	-0.15654717
200	0xbeea7a23	-0.45796308
201	0x3d12952c	0.035786793
202	0x3df5eddd	0.120082594
203	0xbbb5e008	-0.0055503882
204	0x3e2fc052	0.17163208
205	0x3ea8115b	0.3282574
206	0x3e7e7874	0.24850637
207	0x3d4f1176	0.05055376
208	0x3e1cbab1	0.15305592
209	0xbe09d341	-0.13459493
210	0xbe5014ef	-0.20320486
211	0xbceaeb5c	-0.028676681
212	0x3ecd2200	0.40065002
213	0x3c0434e0	0.008069247
214	0x3df880e7	0.12133961
215	0x3e20c5be	0.15700433
216	0x3f08267a	0.5318371
217	0x3e530dbf	0.20610712
218	0x3b08344a	0.002078312
219	0x3d67377f	0.05644941
220	0x3db353f8	0.0875625
221	0xbf0a62fc	-0.5405729
222	0xbda16a6d	-0.07881627
223	0x3e041252	0.12897614
224	0x3ebf876d	0.3740801
225	0x3ea5a780	0.32354355
226	0x3e7aa93c	0.2447862
227	0x3e8be193	0.27320537
228	0x3dd51ecb	0.10406264
229	0xbe06b249	-0.13153948
230	0xbd632d1c	-0.05546294
231	0x3dfc7083	0.123261474
232	0xbdbf6bef	-0.093467586
233	0x3d07d7ca	0.033164777
234	0xbfa8e73f	-1.3195571
235	0x3ddb3bb2	0.10704745
236	0x3e5b7140	0.2142992
237	0x3e1dc34d	0.15406533
238	0x3d9c946f	0.07645499
239	0x3f3a9122	0.72877705
240	0x3fc93380	1.5718842
241	0xbcaf7457	-0.02141778
242	0x3d8eb0c0	0.06967306
243	0xbe2ca1d0	-0.16858602
244	0xbe89232d	-0.2678465
245	0xbea57d13	-0.32321987
246	0xbececa15	-0.4038855
247	0xbe0709cc	-0.13187331
248	0xbe153b68	-0.14573443
249	0x3e44e081	0.19226266
250	0x3e5122c3	0.20423417
251	0x3e912538	0.28348708
252	0x3e2e9d67	0.17052232
253	0xbe5ae58b	-0.21376626
254	0xbca3f730	-0.02001533
255	0xbe0e3be1	-0.1389003
